…
    "use_self_negative": false,
    "weight_decay": 0.0001,
    "workers": 2,
    "warmup": 400,
    "unparsed_args": [],
    "model_type": "SimKGC",
    "encoder": "distilbert-base-uncased",
    "pretrained_model": "distilbert-base-uncased",
    "model_dir": "logs/SimKGC_WN18RR_2026-05-29_22-32-22",
    "output_dir": "logs/SimKGC_WN18RR_2026-05-29_22-32-22"
}
[2026-05-29 22:32:28,497 INFO] kg: Build tokenizer from distilbert-base-uncased
[2026-05-29 22:32:28,498 INFO] kg: => creating model
[2026-05-29 22:32:34,260 INFO] kg: CustomBertModel(
  (hr_bert): DistilBertModel(
    (embeddings): Embeddings(
      (word_embeddings): Embedding(30522, 768, padding_idx=0)
      (position_embeddings): Embedding(512, 768)
      (LayerNorm): LayerNorm((768,), eps=1e-12, elementwise_affine=True, bias=True)
      (dropout): Dropout(p=0.1, inplace=False)
    )
    (transformer): Transformer(
      (layer): ModuleList(
        (0-5): 6 x TransformerBlock(
          (attention): DistilBertSelfAttention(
            (q_lin): Linear(in_features=768, out_features=768, bias=True)
            (k_lin): Linear(in_features=768, out_features=768, bias=True)
            (v_lin): Linear(in_features=768, out_features=768, bias=True)
            (out_lin): Linear(in_features=768, out_features=768, bias=True)
            (dropout): Dropout(p=0.1, inplace=False)
          )
          (sa_layer_norm): LayerNorm((768,), eps=1e-12, elementwise_affine=True, bias=True)
          (ffn): FFN(
            (dropout): Dropout(p=0.1, inplace=False)
            (lin1): Linear(in_features=768, out_features=3072, bias=True)
            (lin2): Linear(in_features=3072, out_features=768, bias=True)
            (activation): GELUActivation()
          )
          (output_layer_norm): LayerNorm((768,), eps=1e-12, elementwise_affine=True, bias=True)
        )
      )
    )
  )
  (tail_bert): DistilBertModel(
    (embeddings): Embeddings(
      (word_embeddings): Embedding(30522, 768, padding_idx=0)
      (position_embeddings): Embedding(512, 768)
      (LayerNorm): LayerNorm((768,), eps=1e-12, elementwise_affine=True, bias=True)
      (dropout): Dropout(p=0.1, inplace=False)
    )
    (transformer): Transformer(
      (layer): ModuleList(
        (0-5): 6 x TransformerBlock(
          (attention): DistilBertSelfAttention(
            (q_lin): Linear(in_features=768, out_features=768, bias=True)
            (k_lin): Linear(in_features=768, out_features=768, bias=True)
            (v_lin): Linear(in_features=768, out_features=768, bias=True)
            (out_lin): Linear(in_features=768, out_features=768, bias=True)
            (dropout): Dropout(p=0.1, inplace=False)
          )
          (sa_layer_norm): LayerNorm((768,), eps=1e-12, elementwise_affine=True, bias=True)
          (ffn): FFN(
            (dropout): Dropout(p=0.1, inplace=False)
            (lin1): Linear(in_features=768, out_features=3072, bias=True)
            (lin2): Linear(in_features=3072, out_features=768, bias=True)
            (activation): GELUActivation()
          )
          (output_layer_norm): LayerNorm((768,), eps=1e-12, elementwise_affine=True, bias=True)
        )
      )
    )
  )
)
[2026-05-29 22:32:34,261 INFO] kg: No gpu will be used
[2026-05-29 22:32:34,261 INFO] kg: log_inv_t: 1
[2026-05-29 22:32:34,261 INFO] kg: hr_bert.embeddings.word_embeddings.weight: 23440896
[2026-05-29 22:32:34,261 INFO] kg: hr_bert.embeddings.position_embeddings.weight: 393216
[2026-05-29 22:32:34,261 INFO] kg: hr_bert.embeddings.LayerNorm.weight: 768
…
